models/pretrained_model.pth (torch, 825823 bytes, 4 tensors)

weight f4 [100, 1024]
00000000: 66ac ff3b 3b8d 4abc ea04 92bd c073 efbc
00000010: 96b7 e43a 3435 38bd 2d6a 8ebd 63a9 57bd
00000020: dd00 d53c edbd 7cbc 7255 9a3c fc55 a93d
00000030: 31e3 353c cd86 09bd 9e04 403c b804 4abc
00000040: ae8e d9bc d412 e7bc b00b 10bd 912c 93bc
00000050: fb4b eebc 561a e03c 6639 013c 0f66 d93c
00000060: f5af 01bb 3147 34bd 99df 9d3c e77d bf3c
00000070: 993b 06bd 5742 133c c3c8 943c 0b43 713d
00000080: d1b6 3cbd 5cee 4d3d 647d afbc 2225 0fbd
00000090: c781 a2bd 8cc4 c8bc 7062 bebc 6868 4e3a
000000a0: 04c6 29bd 5c9a 593c ec39 913b f640 84bc
000000b0: 5172 fa3b 51db 633b 0fd5 47bd 5e8c aabd
000000c0: 2e7c b83c 1c67 bc3c 041a edbc 120d 3a3c
000000d0: eb21 b7bd e31a 57bb af17 193d 303d f539
000000e0: 67af dbbb f381 a23b 5547 48bd 0f19 b2bb
000000f0: 42a3 bf3c 2169 b13c d0d7 05bc 2334 133d
00000100: 9227 9fbd 88c9 5a3c 21e3 cf3c d775 0a3c
00000110: e64d 1d3c 16df a63c c945 1dbd 5f12 9dbd
00000120: bd2f 6d3c 63c6 23bc 01ae a63d 430a a13c
00000130: 10be 393b 963e 4b3c 586f ceba 1578 edba
00000140: 8b58 a23c f7d4 28bd bd03 cfbb cc87 31bd
00000150: cf8c de3c 0e69 e13b 46a2 9bbb 2ac1 a33d
00000160: dfc5 e3bc cf72 bb3c d48d ac3d d3c9 b33c
00000170: d4b6 163d 37e7 6e3d fcee 7fbd 83b1 2ebc
00000180: 2e56 b2bc 19bc 2e3d 602f 0039 a28a 3b3d
00000190: c4bf 69bd 0cda f93c 3178 9bbc bc52 1c3c
000001a0: bf31 22bc b60d 8bbd 0da8 cf3c 684d 87bd
000001b0: 57a2 503c f0f6 4b3d 848a c83c d107 553c
000001c0: 693c 24bd 71e3 343c da1f 7abb 0430 d23c
000001d0: 10a9 fb3c 6219 253b 475b b2bb bb3d b13d
000001e0: a852 dbbc 35f2 74bb e89c 413c 387b 4cbd
000001f0: 47c3 8cbc b57b 863b 78c9 5c3d ee91 aebc
00000200: acb3 80bd 4146 2ebd 5d09 983c 67e6 363d
00000210: e0a0 b5bc a4b7 02bc ccf1 213d cf3f 9dbc
00000220: a8db 40bc 9455 54bd d486 c0bd ab12 ab3c
00000230: 30a1 64bd 2ee3 093c 60fd 81bd 15c9 31bd
00000240: 21a5 ac3c 0872 eb3c 446d 663d 25fc 853d
00000250: 0a68 b83a 6bfe 613c 5768 a73b e2d4 a33c
00000260: fdc7 a2b9 7854 313b ccc1 06bc 7367 6a3b
00000270: badc cf3a 6469 a33c fa84 a03b 5f4a a13c
00000280: 3685 e5bc a268 cb3c 110a 833c e282 f93b
00000290: 88d9 dabb 42a7 a83d 6df3 093c 566a 593d
000002a0: eabb 183c 85fc 03bc 6662 653c 9c62 9e3c
000002b0: 921c cfbc 9546 61bc a36f 7fbc 0a56 b5bc
000002c0: 5549 dc3c 2805 24bd c752 45bd 4ae6 9f3c
000002d0: cc1c 06bd 16aa 403d 8098 f037 1cda dd3c
000002e0: 335a 273c a3de abbc e951 41bd 67d7 aa3c
000002f0: a58b 823d 419b 2b3d c2a9 60bc 64ad 1d3d
00000300: 6847 1abc 79a9 533c 0f35 25bb 72b2 3f3c
00000310: 728d 5cbc 6710 0fbd 177c e0bc 94c0 ffbc
00000320: 9b10 ebbb 979e a63c 3c49 0dbd 827b 673a
00000330: 6703 e4bc e562 3f3d 1230 bdbd 62bc c4bc
00000340: 91d3 c6bc 77bc cfbc 3453 9dbc cb70 efbb
00000350: dfff 4bbc d5c5 d93c d51c d93c f879 573c
00000360: d801 cd3b 7dfa 04bd 3fdb cb3c e8b2 59ba
00000370: 632e 153d 0c2c 5a3a 86ec 8ebd afc5 3cbd
00000380: ac4d 5bbd 8706 1f3d 1c9e dc3c 1b5a b6bc
00000390: 923c 943c cc52 8abc cc00 76bd d6f7 cbbc
000003a0: 8815 3b3d 8a3a 86bd 5afa 493d a109 233c
000003b0: e05c 8a3b 3cbb 84bd 7203 4b3d 0836 83bb
000003c0: b492 3fbd 7899 06bc 74bf 623a 774a dbbc
000003d0: 36f4 23bd 7320 823d cbb9 163d a94f 99bc
000003e0: 1021 44bb e176 03bd cedb 233d ab93 7d3c
000003f0: ddd6 a53d cad0 d0bc 23b1 1bbd e02d 56bc
0.007802534 -0.0123627735 -0.071298435 -0.029229999 0.0017449732 -0.044972613 -0.06953845 -0.052651774
0.026001388 -0.015426141 0.018839572 0.08268353 0.01110153 -0.03357582 0.011719851 -0.012330227
-0.026557293 -0.02820722 -0.035167396 -0.017965587 -0.029088965 0.027356308 0.00788722 0.026537923
-0.0019788716 -0.044013206 0.019271659 0.023375465 -0.03277168 0.008987985 0.018162137 0.058901828
-0.046072785 0.050276145 -0.021422096 -0.034947522 -0.07934909 -0.024507783 -0.023240298 0.0007873834
-0.041448608 0.013281431 0.0044319537 -0.016144257 0.007643022 0.0034768174 -0.048787173 -0.08327554
0.022520151 0.022998385 -0.02894307 0.011355655 -0.08942016 -0.0032822422 0.037376102 0.0004677563
-0.006704259 0.004959339 -0.048896153 -0.005435116 0.023393277 0.021656575 -0.0081691295 0.035938393
-0.07771219 0.013353713 0.025376858 0.008450947 0.009601092 0.020370048 -0.03839663 -0.0766952
0.014476714 -0.00999603 0.08138657 0.019658213 0.0028342046 0.012405058 -0.0015749736 -0.0018117452
0.019817611 -0.041218724 -0.0063175843 -0.043342397 0.027166752 0.0068789786 -0.004749569 0.079958275
-0.027804313 0.022881893 0.08425489 0.021946823 0.036795452 0.058325972 -0.062483773 -0.010662439
-0.02176961 0.042659853 0.0001222468 0.045786507 -0.057067648 0.03049948 -0.01897821 0.00954121
-0.009899556 -0.067897245 0.025348688 -0.06606561 0.012734017 0.049796045 0.024480112 0.013002352
-0.040096674 0.011040554 -0.0038165958 0.025657661 0.030720264 0.0025192131 -0.00544301 0.08654352
-0.026772812 -0.0037375812 0.0118171945 -0.049922198 -0.01718296 0.0041041025 0.053903073 -0.02130982
-0.0628427 -0.042547468 0.018559152 0.044653323 -0.022171438 -0.007978354 0.039537236 -0.019195465
-0.01177112 -0.051839426 -0.094007164 0.020882925 -0.055817783 0.00841598 -0.063471556 -0.043404657
0.021074833 0.028740898 0.056256548 0.065422334 0.0014069092 0.013793568 0.005108874 0.019998971
-0.0003104805 0.0027058404 -0.008224916 0.0035767227 0.0015858628 0.019947715 0.0048986645 0.019688783
-0.028017621 0.024830166 0.015996011 0.0076144794 -0.006678764 0.08235027 0.008419854 0.053079925
0.009322146 -0.008055811 0.014000511 0.01933413 -0.025282178 -0.013749738 -0.015590581 -0.022135753
0.026890436 -0.04004398 -0.048174646 0.01951899 -0.032742307 0.047037207 2.8681243e-05 0.027081542
0.010214376 -0.020980185 -0.047197256 0.020854665 0.06374291 0.04189611 -0.013712348 0.038495436
-0.009416439 0.012918823 -0.0025208627 0.0117002595 -0.013461458 -0.034927752 -0.02740292 -0.031219758
-0.0071736104 0.020339293 -0.03449367 0.0008830355 -0.027833654 0.046725173 -0.09237684 -0.02401561
-0.024270805 -0.025358422 -0.019204713 -0.007307147 -0.012451141 0.026583591 0.026503006 0.013151638
0.0062563233 -0.032465447 0.024884818 -0.0008304552 0.03642119 0.00083226035 -0.06978707 -0.046086963
-0.05354087 0.038824584 0.026930861 -0.022259763 0.018095288 -0.016885184 -0.060059354 -0.02489845
0.04567483 -0.06554134 0.04931102 0.009951026 0.0042224973 -0.064810246 0.049563833 -0.0040042438
-0.046770766 -0.008215301 0.00086497446 -0.026768906 -0.04002782 0.063538454 0.03679828 -0.018714743
-0.0029926933 -0.032095794 0.040004544 0.015477101 0.080976225 -0.025490183 -0.038010728 -0.013072461

bias f4 [100]
00000000: c13f e0bc c9b5 a8bc f6d4 373c 2306 303d
00000010: 823f e53b 2de1 2bbd 76e4 fbbc 7e44 043d
00000020: f8cd 9d3b dda2 183c db2c b7bc 0790 b1bc
00000030: cf52 59bd 08cc 333d 4f14 04bd 4fd4 9d3a
00000040: 3ba9 77bc de87 7dbc 3256 18bd a0ea 0cbd
00000050: 9021 a039 4d18 813d 18c3 313b 1c37 68bc
00000060: 46f0 b13c fd5d 243c beef 613b 873a 013d
00000070: 5fc4 c6bc 00a1 0dbb 9400 543c 06ea 3dbc
00000080: c589 873c 5f5f b53c 6aa5 7d3c 1fea 5c3c
00000090: 7d93 a93a 494c a4bc d67c 063b db79 f33a
000000a0: efa1 3cbc bf9c 5d3c d5ec 42bc c286 28bd
000000b0: c964 013d 3af9 79bb e09e 9b3b 6512 23bb
000000c0: cb84 b63c 0649 51bc d4dd 083b 5f41 75bc
000000d0: f2c3 2c3d 7712 733b 4a80 c63c ebf1 443d
000000e0: ff7a 1abd c01c 5d3c fc43 11bd 3b08 1bbd
000000f0: 4595 03bc b56a 2f3c bed7 043c 02cb f83c
00000100: ae4d 39bc 29fb de3c f506 41bd 782e f7bc
00000110: 6a18 0e3d c315 be3c 0cf3 a93c 9c5c cabb
00000120: 5285 d1bc f4b9 1f3d 4c1f 253c 2bbc 8b3c
00000130: f816 f7bc f8cf b93a 989d 9cbc 2388 d0ba
00000140: 3c60 863c 1f47 ccbc 11e4 fdbc 62f9 1b3d
00000150: 95a7 403d 2dc8 ae3c 1da2 ff3c 9026 b7b8
00000160: 201b 813b b43b 343c d59f f93b a611 02bd
00000170: 5ec1 773c 6adf d0bc f052 e9bb 34d0 543d
00000180: 3670 b23c dd59 91bc e3b1 c03c 70e9 3dbc
-0.02737415 -0.020594494 0.011220207 0.042974602 0.006996096 -0.04196279 -0.030748587 0.03229188
0.004815813 0.009316173 -0.022360256 -0.021675123 -0.053057488 0.04389575 -0.03224593 0.0012041422
-0.015116031 -0.015474288 -0.037191577 -0.034403443 0.00030542584 0.06303463 0.0027124342 -0.014173295
0.021721017 0.010032174 0.0034475173 0.031549957 -0.024263559 -0.0021610856 0.012939591 -0.01159144
0.016545186 0.022140203 0.015481332 0.013483553 0.0012937632 -0.020055907 0.0020521185 0.0018575744
-0.011513217 0.013526141 -0.0118972855 -0.04114414 0.031590257 -0.0038142935 0.004749164 -0.002488279
0.022280117 -0.012773758 0.0020884173 -0.014969199 0.042179056 0.0037089863 0.024231095 0.048082273
-0.037714954 0.013495624 -0.035465226 -0.037849646 -0.008031194 0.010706593 0.008108078 0.03037024
-0.011310024 0.027219372 -0.047125775 -0.030173525 0.03469125 0.023203736 0.020745777 -0.0061755907
-0.025576267 0.038995698 0.010078263 0.017057499 -0.03016232 0.0014176359 -0.019118115 -0.0015909713
0.01640331 -0.024936257 -0.03099254 0.038079627 0.04703482 0.021335686 0.031205231 -8.733303e-05
0.003940001 0.011000562 0.0076179304 -0.031755112 0.015121786 -0.025497157 -0.0071204826 0.05195637
0.021782022 -0.017743045 0.023522323 -0.0115913

weight f4 [1024, 100]
00000000: a993 073d a14e cb3d 2cc4 cbbc 6bc2 183c
00000010: 12a2 6dbb d14e c53c 62c1 0bbd b866 1bba
00000020: fe0a 363d 0374 ffbc db90 67bc 04cc 1b3a
00000030: 7d2c ddbb 3f2a 99bc f186 11bd ceba 56bc
00000040: 14ad 853d 62ff 8f3c f3cd 353d 131f 80bc
00000050: c1b9 09bd 3f16 d83c 6855 4bbc de30 9c3d
00000060: 84c3 a3bd 8c21 adbd dee1 78bc f499 623c
00000070: 8df5 cabc 4767 5e3d ea19 2ebc d359 9b3c
00000080: 3bd7 60bd 445a 95bc ad7e 0f3c 2abf a2bc
00000090: 272c b9bc 0e97 c5bc 5324 203d 5a0d c1bc
000000a0: b679 523b cb24 203d b6b4 90bb 9096 a83c
000000b0: 49a6 8cbd 5bc9 a4bc 737f b7bb 72b6 ec3b
000000c0: c63f f0ba 3e29 253c a648 533d f4f0 0abd
000000d0: fdf1 273d 3338 503c c40f 4b3d 5355 8cba
000000e0: a456 83bc fc4d 3ebd a671 5b3d 0880 e8bc
000000f0: 9bb9 fbbc 8258 e63c 090b d73c 5b35 2fbd
00000100: b285 e03c 36f3 433d 626e 1cbd 8e98 fd3c
00000110: daee 9abb 8f42 5fbb 7eec 913c 6b6c 35bb
00000120: 0752 15bd a758 23bb 6b3a 13bd 585e 273c
00000130: 88c7 87bd de77 923c 390d 31bd e1ce 15bd
00000140: 44db 09bd a73e 1cbd 9509 27bd 0bcd 0a3d
00000150: c7f5 743c 843f 82bc d5ee 2d3d 5d80 ca3c
00000160: 5ae6 a23d ed5f 4f3d c989 3e3d a870 203d
00000170: 9275 523c 182c 893c 6095 e1bc c8a2 cabc
00000180: 9ed1 91bb 8e4e 963a a2fb d1bc 7f89 39ba
00000190: 2443 94bc 6a18 d0bc 79af 8cbc 7302 773c
000001a0: d0ad 333d 1b7a 75bd 5413 7ebc c78a 0a3d
000001b0: 4fc3 023d 9f48 ba3d 60cb 9bbc 0a84 753c
000001c0: 093c 613c 01a4 683d 644f 77bc 62a0 0fbc
000001d0: 9f78 8d3c 0dd8 8fbc e2d3 9e3d df4f 9d3c
000001e0: 782e a93b e6bf 893c 310c 11bd d054 113d
000001f0: 3d36 083d 4b84 e9bc 3026 3c3d 5bd7 b23b
00000200: c15b 9bbc be4d 0d3d 1ef2 573c 242e 5cbd
00000210: 7b40 bd3c 39f7 673d 077a 173d 1cad 043d
00000220: d86c 06bd 55a1 413d 2418 87bc 54c6 5d3b
00000230: e26c 4b3d 021a c63c b157 d6bc b4af 56bc
00000240: 6b7f ffbc 36b1 91bc d1bc 19bd 3dbb 183b
00000250: 2698 c7ba 2dd1 06bd 6a86 ecbc a61d 70bd
00000260: 671a db3c f153 2d3d 6137 2b3d 3dcb 8abc
00000270: 28cf 99bd 222a 693d 77f2 8f3d bfea 25bd
00000280: 300f b4bc 7a71 b63b 7b11 b8bc 8cf6 1b3b
00000290: 617c 83bd 042c 513d eed4 4b3d e664 083d
000002a0: 604e a23c 916b b53c d7ea 193c fdcb 89bd
000002b0: 2a3f 9d3d 4b72 c3bc acd5 98bd 814a a53c
000002c0: 44c5 d23c dcae 043d 8170 5a3d 220c 863a
000002d0: 85df ecbb 95fb ad3c 5d99 86bd c4fa 843d
000002e0: 8c47 b4bc e222 f0bc fd1a 92bc 9598 2cbd
000002f0: 7200 9cbc ccfc 24bd fb0e e93c 7e59 533d
00000300: eab4 b2bc 57a3 463d 502a 0abc c22a 79bd
00000310: 62b8 573b 0a7f 8f3c 8d60 94bd d9c8 a0bb
00000320: e777 53bd 87c1 46bc e556 50bd e477 c9bc
00000330: 5a20 6a3c 5c62 35bd 0d1d 9dbd a06c 433d
00000340: 18a4 b0bb 10ee d9bc 8c59 babc 447b b5bd
00000350: b32f 9d3d 6e5e c03b 4cd4 443c 1000 8a3d
00000360: 8e1d 003d 48e1 61bd f595 003d 651c 783d
00000370: 1eff bcbc 23f8 f83c 2670 1fbc d455 a7bb
00000380: 48bf 5fbd be00 6dbc 5309 44bd c312 b5bd
00000390: e7aa 553c e5e1 ad3d 5932 b53d 6b69 a4bc
000003a0: c3d2 a2bc 27b8 703d f74a 60bc efdd c83c
000003b0: 1d1e 18bd 7988 743d 7817 583d de24 56bd
000003c0: 8cb8 b63d ce55 c43a 2a14 8fbb 1cf9 fbbc
000003d0: b46d 38bc 2039 f6bc 6a36 7abc 917e ccbd
000003e0: 62f0 20bd f302 85bd c074 86bc 800d e23c
000003f0: 5065 9b3d 6541 c03b 1b42 1b3d 54ba 83bc
0.033099804 0.09927107 -0.024873815 0.009323697 -0.0036259932 0.024085434 -0.03411997 -0.0005928087
0.044444077 -0.031183248 -0.014133657 0.00059431815 -0.006749688 -0.018696902 -0.03552908 -0.013106061
0.06527153 0.01757783 0.04438586 -0.015639817 -0.033624414 0.026377795 -0.012410499 0.07626508
-0.07996276 -0.08453664 -0.01519057 0.013830651 -0.02477529 0.05429771 -0.010626296 0.01896373
-0.05489276 -0.018231519 0.008758229 -0.019866545 -0.022604061 -0.02411988 0.03909714 -0.023565937
0.0032116002 0.03909759 -0.0044160737 0.020579606 -0.06867654 -0.020115545 -0.00559991 0.0072238976
-0.0018329553 0.010080634 0.051582955 -0.033921197 0.041002262 0.012708711 0.049575582 -0.0010706581
-0.016032524 -0.04646109 0.05357518 -0.028381363 -0.030728152 0.028118376 0.02625038 -0.042775493
0.0274075 0.047839366 -0.038191207 0.030956533 -0.0047281804 -0.0034066772 0.017812964 -0.002768303
-0.03645518 -0.0024924667 -0.035944384 0.010215364 -0.066298544 0.017879423 -0.0432255 -0.03657425
-0.033656374 -0.038145687 -0.040780623 0.03388695 0.014951176 -0.015899427 0.042464096 0.024719412
0.07954092 0.05062859 0.04651812 0.039169937 0.012845414 0.016744658 -0.027537048 -0.024735823
-0.004450037 0.0011467503 -0.025632683 -0.00070776785 -0.018098421 -0.025402267 -0.017173516 0.0150762675
0.043866932 -0.059930902 -0.015507538 0.033823755 0.031924542 0.090958826 -0.019017875 0.014985094
0.013747224 0.05679703 -0.015094612 -0.008766266 0.01726943 -0.017559076 0.07755257 0.019203125
0.00516301 0.016815137 -0.035412017 0.035481274 0.03325485 -0.028505465 0.045934856 0.0054578013
-0.01896465 0.03449797 0.013180284 -0.05375494 0.023102036 0.056632254 0.03698161 0.032391652
-0.032818645 0.047273 -0.016491003 0.0033840137 0.049664386 0.024182323 -0.026164861 -0.013103414
-0.031188687 -0.017784696 -0.037533585 0.0023304962 -0.0015227839 -0.03291433 -0.028872687 -0.058622025
0.026745988 0.04231638 0.04180086 -0.016942615 -0.07510215 0.056924947 0.070286684 -0.040507074
-0.021979898 0.0055677267 -0.022469273 0.0023798076 -0.06420208 0.051067367 0.049763612 0.03329935
0.019812763 0.022146018 0.009394369 -0.06728361 0.07678063 -0.02385821 -0.0746263 0.020177128
0.02572883 0.03239332 0.05332995 0.0010227005 -0.007228794 0.021238128 -0.065722205 0.06493142
-0.022006772 -0.029313508 -0.017835135 -0.0421377 -0.019043181 -0.04028015 0.028449526 0.05159902
-0.021814782 0.048495617 -0.00843294 -0.060831793 0.0032916297 0.017516632 -0.07244978 -0.0049067554
-0.05162802 -0.012131101 -0.05086412 -0.024593301 0.01428994 -0.044283256 -0.076715566 0.047711015
-0.0053906552 -0.026602775 -0.022747777 -0.08861402 0.076751135 0.005870632 0.012013506 0.06738293
0.031278186 -0.055146486 0.03139301 0.060573954 -0.023070868 0.030391758 -0.009731328 -0.005106667
-0.05462578 -0.014465509 -0.047860455 -0.08841469 0.013041235 0.084903516 0.08847494 -0.020069798
-0.01987589 0.05876937 -0.013689748 0.024519889 -0.037138093 0.059700463 0.052756757 -0.052281253
0.08921918 0.0014979185 -0.0043664174 -0.030758433 -0.011256624 -0.030056536 -0.015271762 -0.09985078
-0.039291747 -0.06494703 -0.016413093 0.027594328 0.07587683 0.0058671706 0.03790484 -0.01608006

bias f4 [1024]
00000000: 69d1 8cbc 68e2 83bc b444 99bd d93a a93d
00000010: 9072 0bbd 155c 04bd 2a9c 29bd 7a6b 9b3d
00000020: 778c 1a3d 8e9d 833c 3968 0d3d 9581 25bd
00000030: b6d5 96bc 5fcd d2bc c97f 2f3c 8636 c73c
00000040: 77bc 15bd 276b 16bd f981 02bc e891 443d
00000050: d688 b13d bbaf c4bc 02bf 1fbc 1fb7 4e3d
00000060: 7221 c3bd 5033 763b 5642 02bc 3e36 7abd
00000070: e938 f1bc afbd 3a3d 464a 40bc 6485 153d
00000080: e7cb febc 6446 f73c e9b8 42bd b2eb 523d
00000090: fb36 093d 21f9 ba3c b0a9 0cb9 0dd5 88bd
000000a0: f425 c13c a2a1 61bd 0b01 653c 1946 bebd
000000b0: deab d7bc 69de 99bc cfb6 d33d cca4 e9bc
000000c0: 31c6 5fbc 28cc 473d 26ec d93c 7b62 463c
000000d0: 09d7 863d 2e5c debc 04f2 3fbd 01dc 9cbd
000000e0: 4092 f03b c1f8 273d e163 ee3b 837a dd3d
000000f0: 54b3 febb cadb 3cbd 0534 99bb cf71 63bd
00000100: 3e01 27bd 1545 c5bc f7bb 013d bf97 063d
00000110: c7c0 823d b582 babd 2206 8bbc 1eab b53c
00000120: 8ad2 16bd 029d 1e3d d9a3 503d e57d 9bba
00000130: f0fe 26bd 5d06 153d 4493 09bd 4d1b 983d
00000140: 9888 153d 8a08 82bd 82a9 aebd 43e4 96bc
00000150: 386b 50bd 8be7 83bd df7c 03bb 659b 10bd
00000160: a866 013b 806c 39bd 4c6a 52bd db76 c2bd
00000170: a245 f83c e661 82bd f2c0 543b 5fc7 02bd
00000180: 1219 40bd f9eb 533c 760b d83c 2bdc adbd
00000190: c4d8 093c 565d 283d 7098 593d 7bb7 b03d
000001a0: 108e a23b d48a 913d 5d2e 45bd 140c 71bc
000001b0: 368f e93c dd5f c13b e7e1 35bb b4f3 7bbc
000001c0: 3795 1f3d 0fff d43c 7984 673c c757 65bc
000001d0: 316b 2b3c 3fa4 afbd b9c9 cfbc e24d 843c
000001e0: bcb9 86bd 7e47 53bd 3078 3e3d fe0b 8ebd
000001f0: 5825 72bd 0d7f 07bd 603d 35bd 74e4 6fbc
00000200: f44c 763c 4d03 32bd 5cf0 c03c 04a7 32bd
00000210: 25b4 1dba c9d2 df3b c593 8bbd d4ca 393d
00000220: 2120 b23c 4aa7 c0bb 0d75 e23c 04e4 9cbd
00000230: 8cf1 9cbd c0c7 743d bbaf 41bd a7ad 6dbc
00000240: 89e9 f6bc 0cf8 4db9 69c1 29bd b192 94bd
00000250: e6dc 8bbd c1e1 87bc 4908 bdbc bb3e 823d
00000260: cfac a03c e696 6bbd d499 723b bbab e4bd
00000270: 5d31 4c3d ab94 6cbb cef4 9bbd 58b4 9539
00000280: ba3f 2ebd 0cc8 323b 170b 8b3c e496 983d
00000290: ee93 ba3b 2a15 97bc 7726 00bd c651 7c3d
000002a0: f150 a7bd 3713 1ebd 1f3f babc 560c 53bd
000002b0: 94d6 1dbd d994 d0bc 1629 c4bc 747b e53c
000002c0: e016 8cba 35d2 18bc 37c4 1cbd 84ff 923d
000002d0: e187 10bd c8c2 143d 4540 93bc 4c4c 573b
000002e0: e857 c9bc f627 a83d c329 74bd f013 0cba
000002f0: 0c9a 1b3c 7063 d53b b17e b7bd be06 7b3b
00000300: 732e 3dbd cd1a 0c3d c55e a43c 681f 7c3c
00000310: a04a 5c3d 2a7b 18bd bc0a 1bbd f216 893d
00000320: daa0 4a3c 0f6e e33b b0db 97ba 7bf6 09bd
00000330: 6459 d7bc f5d3 09bd c632 c73c 1712 fdbc
00000340: 4975 c4bc 8023 2cbd 0870 8bbb 11ab 303d
00000350: 4f44 0e3d 9f8b 453c 8837 94bd c270 7b3d
00000360: 7bf5 3cbd 3a8e 0f3b bfba d13d 7b24 3c3d
00000370: 5583 9d3d 1c25 5dba faa9 ec3a be97 0f3c
00000380: 49bd 10bd cd95 4c3d bcdb 2abd 3fc6 b53d
00000390: fd88 f1bd 268c 663d 003b ecbc fabb 07bc
000003a0: 1c72 093d c138 0abd d95d b63c bdfb 1a3d
000003b0: 1d7d 9d3a 2995 0a3c d51f e53b b2a2 78bd
000003c0: 90df bcbb 26c9 643d b180 6a3c 7a2e eebb
000003d0: 8ba1 bd3c f2e9 b6bd 83a2 a43d e159 3d3d
000003e0: 1e5f 193a 50a6 e63b 98a6 54bd 6210 9fbb
000003f0: 5b17 163d df06 8f3d 4383 dd3c 0621 1ebd
-0.017189698 -0.01609917 -0.07483807 0.082631774 -0.034044802 -0.03231438 -0.041408695 0.07588859
0.037731614 0.016066339 0.034523223 -0.040406782 -0.018412452 -0.025732694 0.010711619 0.024317991
-0.036556687 -0.036723282 -0.007965558 0.04799071 0.086686775 -0.024009576 -0.00975013 0.050467607
-0.095278636 0.0037567206 -0.007950386 -0.061086886 -0.029446082 0.045591053 -0.011736458 0.036504164
-0.031103088 0.030184932 -0.047539625 0.051494308 0.0334997 0.022823872 -0.00013414654 -0.06681261
0.023577668 -0.055085786 0.013977299 -0.09290714 -0.02632707 -0.018782811 0.10337602 -0.028520964
-0.013658092 0.048778683 0.026601862 0.0121084405 0.065839835 -0.027143564 -0.046861663 -0.0765915
0.007341653 0.041008715 0.00727509 0.10814383 -0.0077728424 -0.046108045 -0.0046753907 -0.05552846
-0.04077267 -0.024080792 0.031673398 0.03285956 0.063844256 -0.09106962 -0.016970698 0.022176322
-0.03682188 0.038723953 0.050937507 -0.0011863081 -0.04077047 0.03638302 -0.03358771 0.07427082
0.03650722 -0.06349285 -0.08528425 -0.01841939 -0.0508835 -0.06440648 -0.0020063443 -0.035304446
0.0019745026 -0.04526949 -0.051370904 -0.09495326 0.030306641 -0.06366329 0.0032463637 -0.031928416
-0.04689891 0.012934678 0.026372653 -0.08489259 0.008413497 0.041104637 0.05312389 0.08628746
0.004960783 0.071065575 -0.04813992 -0.014712352 0.028510671 0.0059013204 -0.0027753056 -0.015377928
0.03896066 0.026000528 0.014130705 -0.0139979785 0.010462568 -0.08576249 -0.025364744 0.016150419
-0.06578395 -0.051581852 0.04650134 -0.06935881 -0.059117645 -0.03308015 -0.044247985 -0.01464187
0.0150329955 -0.04346018 0.023552112 -0.04361631 -0.00060159183 0.0068305475 -0.06815294 0.045359448
0.021743836 -0.0058793174 0.027643705 -0.07660678 -0.07663259 0.05976081 -0.04728673 -0.014506734
-0.030140655 -0.00019642728 -0.041444216 -0.07254542 -0.068292424 -0.01658714 -0.02307524 0.06359621
0.019613652 -0.057516955 0.0037017958 -0.111655675 0.049851764 -0.0036099355 -0.07615052 0.0002855386
-0.042541243 0.0027279882 0.016973061 0.07450655 0.005693904 -0.018442709 -0.031286683 0.061601423
-0.08169735 -0.038592543 -0.022735177 -0.051525436 -0.038534716 -0.025461601 -0.023945373 0.028012969
-0.001068797 -0.009327461 -0.038273063 0.07177642 -0.035285834 0.03631857 -0.017974982 0.0032851873
-0.02457805 0.08210747 -0.05961014 -0.0005343547 0.009497177 0.006512098 -0.08959711 0.003830358
-0.046186876 0.034205247 0.02006472 0.015388347 0.053782105 -0.037226833 -0.037852034 0.066938296
0.012367452 0.0069406102 -0.0011585858 -0.033682328 -0.026287742 -0.033649404 0.024316203 -0.030892415
-0.023981707 -0.042026043 -0.0042552985 0.04313189 0.034733113 0.012057214 -0.07237154 0.06138683
-0.046132546 0.0021904842 0.10240697 0.045933228 0.07691065 -0.00084360107 0.0018056028 0.0087642055
-0.035336766 0.04994755 -0.04171346 0.08875703 -0.117937066 0.056286 -0.028836727 -0.008284563
0.03355609 -0.03374553 0.022261547 0.037837733 0.0012015436 0.008458414 0.00699232 -0.060702033
-0.0057639554 0.055855893 0.014312909 -0.007268724 0.023148319 -0.0893134 0.08038809 0.046228293
0.00058506604 0.007038869 -0.05191669 -0.004854248 0.036643367 0.069837324 0.02704013 -0.038605712
